Layer (type)                 Output Shape              Param #   
=================================================================
conv2d_1 (Conv2D)            (None, 28, 28, 32)        320       
_________________________________________________________________
conv2d_2 (Conv2D)            (None, 28, 28, 32)        9248      
_________________________________________________________________
max_pooling2d_1 (MaxPooling2 (None, 14, 14, 32)        0         
_________________________________________________________________
dropout_1 (Dropout)          (None, 14, 14, 32)        0         
_________________________________________________________________
conv2d_3 (Conv2D)            (None, 14, 14, 64)        18496     
_________________________________________________________________
conv2d_4 (Conv2D)            (None, 14, 14, 64)        36928     
_________________________________________________________________
max_pooling2d_2 (MaxPooling2 (None, 7, 7, 64)          0         
_________________________________________________________________
dropout_2 (Dropout)          (None, 7, 7, 64)          0         
_________________________________________________________________
conv2d_5 (Conv2D)            (None, 7, 7, 128)         73856     
_________________________________________________________________
conv2d_6 (Conv2D)            (None, 7, 7, 128)         147584    
_________________________________________________________________
max_pooling2d_3 (MaxPooling2 (None, 3, 3, 128)         0         
_________________________________________________________________
dropout_3 (Dropout)          (None, 3, 3, 128)         0         
_________________________________________________________________
flatten_1 (Flatten)          (None, 1152)              0         
_________________________________________________________________
dense_1 (Dense)              (None, 1024)              1180672   
_________________________________________________________________
dense_2 (Dense)              (None, 1024)              1049600   
_________________________________________________________________
dense_3 (Dense)              (None, 1024)              1049600   
_________________________________________________________________
dense_4 (Dense)              (None, 1024)              1049600   
_________________________________________________________________
dense_5 (Dense)              (None, 10)                10250     
=================================================================
Total params: 4,626,154
Trainable params: 4,626,154
Non-trainable params: 0
_________________________________________________________________
Score:
loss acc
0.163866307964 0.9734





